student_model.pth (torch, 307045 bytes, 10 tensors)

encoder.0.weight f4 [32, 3, 3, 3]
00000000: f3f1 183d 0e27 363e 01b2 3a3d 1e04 d4bd
00000010: 0562 15be d3d8 d4bd a44d 06be 4828 61bc
00000020: 6d78 9cbd 1732 703d 5843 2d3e 8ead ffbd
00000030: 766c 453e 9817 20bd ccfc dd3d a21f a1bd
00000040: ea69 bb3c 98e7 553d d4f2 553d 7e3a 2dbe
00000050: b392 31be f359 a93d d783 a13d e475 db3c
00000060: 15ff 153d 6695 debd a949 18be 3a1c 43bc
00000070: a60f efbb 3d4b e339 e5cb 3cbe 7567 e3bd
00000080: 5bc2 3a3e ab26 a1bd eeb2 a23d cf19 dabd
00000090: c063 a93d b2b7 d0bd 5915 2dbe 1d04 463e
000000a0: 3d38 b2bd 0871 c63c 2395 f43d bd17 973d
000000b0: 50a0 34be 762a 8a3c b8ac 413e b15a 3cbe
000000c0: a122 07be d6d6 1b3d 6690 253e a3f3 213e
000000d0: 219c 20bb 43ad bf3a 6cc9 033d b77c 473e
000000e0: 028c 55bd e525 953d 75f2 373e caf6 d8bd
000000f0: 9bc8 fb3d a89c 883d cfcb a8bd ca34 e3bd
00000100: 96fe 33bd e301 433e 171a 2abe e3a3 b93d
00000110: a68f 6dbd ac6c 3fbd 3f82 2ebe 8214 8b3d
00000120: a539 e9bb 3e12 223d 457c 95bb 9c44 b93d
00000130: 5ac8 03be 724c e1ba c7b6 88bd 2ab2 dd3c
00000140: 253e 1cbe adf1 1dbe 5d36 18be 0500 61bb
00000150: 50aa 563d 29e6 5bbc a86f bd3d bb46 2ebd
00000160: 3c48 4ebc 0c54 873d 508f cb3d 6882 f7bc
00000170: 0aba 15be 1d64 3bbe 747f 833d 1d85 233e
00000180: 9e7a 4b3d 2a05 e6bd b1d8 153e 566a c4bd
00000190: 2dfe 99bc eb23 f0bd cd89 a63d dace 843d
000001a0: 6887 f2bd 9a8f 04bd f867 463e 0772 05be
000001b0: c60f 133e 1d88 12be e616 bd3d 5108 92bc
000001c0: 4624 8abd e161 15be 6eab c5bc b23e 37be
000001d0: df24 c13d f534 0abe 6eac 7dbd 6954 4b3d
000001e0: cd54 8bbd 9cd8 04be 701e 84bd 7e7b 1ebe
000001f0: 5603 1fbe a616 013e ac7c 023e c78b 15be
00000200: fb39 02be db21 0bbe 407b cbbd fde3 cfbd
00000210: 57e3 633d d37b adbd 4e27 14bc 3756 b1bc
00000220: 4cc1 ae3c e982 97bc 3061 d3bd 5cb6 2d3e
00000230: f9c2 c43d da23 e5bc 3f82 0a3e 75e3 873c
00000240: 8f2c 363e 829a 293e ce09 2d3e 0ad0 ca3d
00000250: e799 7dbc 7d01 2a3e f251 cebd 4b46 173d
00000260: 90b9 393e 027c 10bd 26c3 fe3d 40e1 163e
00000270: 5fc7 4abd c34c 99bd 620a 0b3e 42b7 12be
00000280: dbf1 f7bd cfef 3a3e d001 45ba 102a 38bd
00000290: f3da aebd e40b b63b 9c6a d5bc 2bec 0f3d
000002a0: 8cb9 45bd ac87 af3d 78b1 0b3e 1f6e 363e
000002b0: 480a 13bc d3e3 dc3d cb22 72bd 010f 013e
000002c0: d469 a2bd 2ac9 403e 1fa8 3b3e ab6c 033e
000002d0: cb96 373e aee6 37bc f94d 8cbd de95 c8bd
000002e0: 0893 15be d775 0ebe e6b0 bc3d 72a8 0ebe
000002f0: 1ad1 4c3c 2cfb 1bbe 5166 e6bd e242 ae3d
00000300: 8b7a d63d d39d d1bd 7403 433e 18dc 46be
00000310: b142 ab3d 74db 0d3d 5449 a13c 6446 4c3d
00000320: a2d8 eb3c 921a 9fbd 347d 123e 544e 18be
00000330: 4507 203d 62cf adbc d64b 6abd aa7d d0bd
00000340: 0879 17bd 382f 09bb cfe8 69bd b495 2a3e
00000350: 197d 203e cf15 36be 649c a9bb c0e7 353e
00000360: f106 abbc 211b 4f3d 2862 c93d 07f5 c93c
00000370: 30fc 003e 9e7a 34be f0ac 32be 5e93 b63c
00000380: 975b e73d f0b2 2cbe ae5f 21be 2da7 30be
00000390: 3945 8e3d c5bc 983d 02e6 0e3e e08f d5bc
000003a0: 52e4 063e 191a babd 0793 1ebe c7ac 0d3e
000003b0: d8bf c23d f58e 0b3e df3a 0bbe 8ff8 ea3d
000003c0: 4125 f33d 189f 2fbe 5af0 3dbe 3f0d 0dbe
000003d0: f48b 163e 2adf 3a3e 5fe7 17be ef96 223e
000003e0: b0b3 6fbd 7802 f93c 890d cd3d 370b 38bc
000003f0: f1b5 113d 823c f93d aac9 1dbe 3607 163e
0.037340116 0.17788336 0.045579914 -0.10352348 -0.14588173 -0.103929184 -0.13115555 -0.013742514
-0.07640157 0.05864152 0.16920221 -0.12484275 0.19279656 -0.039085 0.10839233 -0.078673616
0.022877652 0.052222818 0.052233532 -0.16916844 -0.17341118 0.082691096 0.078864746 0.026789613
0.03662022 -0.10868339 -0.14871849 -0.011908585 -0.0072955666 0.0004335287 -0.18437155 -0.11103717
0.18238203 -0.078687035 0.079442844 -0.10649454 0.08270979 -0.10191287 -0.16902675 0.19337507
-0.08702133 0.02422382 0.11942508 0.073775746 -0.1763928 0.01686595 0.18913543 -0.18393971
-0.13196804 0.03804668 0.16168365 0.15815596 -0.0024507123 0.001462378 0.032174513 0.19481169
-0.052135475 0.072826184 0.17963584 -0.10593946 0.12294122 0.06670505 -0.082419984 -0.11094053
-0.043943964 0.19043688 -0.16611515 0.09064462 -0.057998322 -0.046734497 -0.17041872 0.06791021
-0.0071174675 0.03956818 -0.004561933 0.09046289 -0.12869397 -0.001718892 -0.06675487 0.027062494
-0.15258081 -0.15424223 -0.14864488 -0.0034332287 0.052408516 -0.013421574 0.09249812 -0.042547923
-0.012590464 0.066078275 0.09939444 -0.03021355 -0.1462175 -0.18299909 0.06420794 0.15968747
0.049677484 -0.11231454 0.14633442 -0.095905945 -0.018797958 -0.11725601 0.08131752 0.06484766
-0.11842233 -0.03236351 0.19375598 -0.13031779 0.14361486 -0.14309736 0.09232883 -0.017826231
-0.067452 -0.14588119 -0.024129596 -0.1789501 0.09430861 -0.13496764 -0.06193202 0.049641047
-0.06803284 -0.12973255 -0.06451118 -0.15476796 -0.15528616 0.12606296 0.12742871 -0.14604102
-0.1271743 -0.13587134 -0.099356174 -0.10150907 0.05563673 -0.08470883 -0.009042574 -0.021647556
0.021332406 -0.01849504 -0.103212714 0.16964096 0.096075006 -0.027971197 0.13526247 0.016587952
0.17790435 0.16562846 0.16898271 0.099029616 -0.015478588 0.1660213 -0.100742236 0.03693227
0.18137193 -0.035274513 0.12439565 0.14734364 -0.04950654 -0.07485344 0.1357818 -0.1432772
-0.12106677 0.18255542 -0.00075152237 -0.04496199 -0.08537855 0.0055556167 -0.026051812 0.035137337
-0.048272654 0.08570799 0.13641918 0.17815445 -0.008974619 0.107856415 -0.059115212 0.1260338
-0.07930341 0.18826738 0.18325852 0.12834422 0.17928617 -0.011224432 -0.068508096 -0.0979421
-0.14606869 -0.1391214 0.09213428 -0.13931444 0.012501026 -0.15232533 -0.11249984 0.08508851
0.10472592 -0.10235181 0.19044286 -0.19419897 0.0836233 0.034633115 0.019688286 0.049871817
0.028789822 -0.0776874 0.14305574 -0.1487363 0.039069433 -0.021217052 -0.05720123 -0.101802185
-0.03698066 -0.0020932686 -0.05710679 0.1665867 0.15672721 -0.17781757 -0.005176114 0.17764187
-0.020877333 0.05056298 0.09833175 0.024652971 0.12596202 -0.176249 -0.17448783 0.022287067
0.11296766 -0.16865134 -0.15759155 -0.17251272 0.06946797 0.0745788 0.13954929 -0.026069582
0.13173035 -0.09087009 -0.15485774 0.1383544 0.095092475 0.13628753 -0.13596676 0.1147319
0.1187234 -0.17150533 -0.18548718 -0.13774584 0.14701825 0.18249193 -0.14834355 0.15877889
-0.058520973 0.030396685 0.10012347 -0.011233143 0.035573903 0.12169744 -0.1540896 0.14651188

encoder.0.bias f4 [32]
00000000: 2e3f 8f3b 2a33 3d3d c750 d0bc 87ce b8bd
00000010: a075 3c3e 3008 2b3c ff97 903d 56f3 e9bd
00000020: ffaa 4c3c 1080 17be f406 d4b8 fcce 1e3e
00000030: ffd9 bbbd 830c 9bbc 38fb 09bd 920b 00bd
00000040: 8e17 cbbd 0383 06be b978 033e fab8 f13d
00000050: 43af 473e 5ac5 823d 685d 3e3e d816 453d
00000060: 7a42 c7bd d902 ae3a 8171 35be 040c febd
00000070: 4514 3abe abe3 223e bb5a 453e 1adf 8dbd
0.0043715453 0.046191372 -0.025429143 -0.09023767 0.18404245 0.010438964 0.07060241 -0.11423366
0.0124919405 -0.14794946 -0.00010110243 0.15508646 -0.09172439 -0.018926864 -0.033686846 -0.031261034
-0.09916602 -0.13135915 0.12839021 0.118028596 0.19500451 0.06385298 0.18590319 0.04811749
-0.09729476 0.0013275995 -0.1771908 -0.124046355 -0.18171795 0.15907161 0.19272892 -0.06927319

encoder.2.weight f4 [64, 32, 3, 3]
00000000: 1a59 c1bb 5068 20bd 3dc7 403d 099d 0ebd
00000010: ff1d 823d e264 af3c 292a 753d e182 f73c
00000020: 3333 fe3c 9b67 043d 8a67 813d 9c65 113d
00000030: d5ef 823d 5490 c83c ea25 13bd a969 eebc
00000040: 8daa 04bd 7938 043d d99c 4abc fc91 6b3d
00000050: 0c3e 25bd ff00 2d3c 275f 47bd 486b 013c
00000060: 26f1 6e3c f41f 1ebd 6c57 133d 1a11 5cbd
00000070: c7dd b53c ae10 a1bb 08cc a0bb c305 07bd
00000080: f4de 86bc 98de 90bc cb28 af3b 555f 5fbd
00000090: 2f11 1e3d 3368 4e39 c488 f2bc e619 e43c
000000a0: af68 753d 7662 4ebd b219 4f3c 27c7 08bc
000000b0: 53e7 253d 724e 9e3b 2168 683d e5c7 373b
000000c0: 20ae 583d 09a0 f8bc 9c05 eebc f5ea 9cbc
000000d0: d393 3d3b 1dc4 483b 1c92 0c3c 45ee 7a3d
000000e0: 2b75 5b3d c489 15bd d43d 933c 7167 9fbc
000000f0: 4483 c33c a992 f23c e17b eabc f3fc 31bd
00000100: 534c f1bc b006 0dbd bf61 11bd 7f4e 50bd
00000110: fd58 3f3d 7a7c 9b3c 5be8 d73b 8b80 34bd
00000120: 0dab 73bc 7497 b7bc efb7 533d 34a2 803d
00000130: a468 e6bc 98e4 4c3d fc69 413d ddf1 fb3c
00000140: c0e0 56bd 1996 4abd 84df 8a3c 32c5 f73c
00000150: 5114 00bd b367 fc3c e2c2 313d ce7f f13c
00000160: 5aff e8bb 3004 81bd 3ef9 2d3b c63a 713d
00000170: 04fd 1fbc 3be1 073d bcaf 42bd 7710 c3bc
00000180: 2c5c 3b3d 3248 02bd 006b a53c 1e60 473d
00000190: 06e3 123b 588e f93b b18d 4cbd bf9b a53c
000001a0: 7a02 4e3d 0df8 7f3d d16a eabc f0e4 08bc
000001b0: e95b 4e3d d446 eebb 3948 13bd b37b 4b3d
000001c0: 4315 5dbd 1c37 bb3c 39d3 2ebd 600e 18bd
000001d0: 1597 5d3d 746d a63c a452 1ebd 75a4 1d3c
000001e0: b544 21bd 3dd0 02bd 4825 10bd fd21 52bd
000001f0: 9140 043b 605f 553d 1e96 2abb afa2 c7bb
00000200: 63b9 333d ffbe 713c d2e5 233d cc6b 05bd
00000210: 32f6 17bd 7e45 073c f730 4ebd 4061 8a3c
00000220: e88e 34bc 0feb 273d 5486 52bc 95ab 583d
00000230: 99c4 84bc b9aa 6d3c ba45 1ebc c50d e4bc
00000240: d3ae 3f3b b8e1 6c3d 95a4 f9bc d45b 183d
00000250: 8646 aa3c 9e2d 3cbd 3972 ac3c d30a 4d3b
00000260: 2193 19bd 8315 283c f7d1 593d af6c a73c
00000270: 4b62 883b 612a 46bd 415b 25bd bd02 2b3c
00000280: 5f6e 1b3d 3c9e 4ebd 7b49 6d3d 3c53 433d
00000290: be69 53bd e59d 11bd e23e c139 e62e e5bb
000002a0: 8433 50bd 3300 e43c 71c2 2abd 5640 f6ba
000002b0: 7534 12bd bc71 663b 80bf cb3c 05f8 4ebd
000002c0: a00b 69bc 1ba4 20bd d81d 04bd d8de c1bc
000002d0: 9506 2cbd d9d9 523d 5011 09bd cb3b 7ebc
000002e0: 1f83 0ebd 0ba5 f63c 00d1 92bb 79fe 193c
000002f0: f757 5e3d b193 24bc 1321 e83c b1f0 45bd
00000300: 4368 80bc 0472 2f3d e820 8f3b aa04 443d
00000310: 7b1a eabc caaf 33bd 95c9 fe3c 6ecb 90bc
00000320: e9b8 43bd 031a 7e3d 5821 683d fc37 70bb
00000330: 5aa1 88bc fce1 233d a495 37bc e711 643d
00000340: 2fce 98bc e49b 2abc 7345 dd3c 25d6 e23b
00000350: 833e 0b3d d0ce 2e3c 8fc4 4d3d 1c3a 373d
00000360: 2af9 123d a7e7 25bd e9ac 763d 8449 28bd
00000370: 7ec0 2cbd 32ad 0d3c 04b8 fd3c 0590 c53c
00000380: d51c 5ebd a817 b3bb fdf6 2fbd 22a9 753d
00000390: 543d 34bd 8c01 8a3a 9848 ae3c b199 5dbd
000003a0: ccb6 fdbc 09c1 38bd 61a9 8bbc fc3b 49bc
000003b0: 4ba2 0cbd b812 ce3b 300f 263d 54a4 843c
000003c0: d890 65bd 59d8 6fbd a970 60bd dad1 043d
000003d0: 26cc e33c 0d5f 973b a4f5 253c 35bd 0fbd
000003e0: 0007 68bd 393b a03c 47f1 0f3d 1624 0c3d
000003f0: a127 593d 5770 4f3d a466 67bc f8c0 4dbc
-0.0059005143 -0.03916198 0.04706501 -0.03481773 0.063533776 0.02141041 0.05985466 0.030213775
0.031030273 0.03232537 0.06318577 0.035497293 0.063934006 0.024482884 -0.03592483 -0.029103117
-0.032389212 0.03228042 -0.012366497 0.05751227 -0.040342376 0.0105593195 -0.04867473 0.007899113
0.014583861 -0.03860469 0.035972044 -0.053727247 0.022200478 -0.0049153185 -0.004907135 -0.03296448
-0.016463734 -0.017684266 0.005345439 -0.054534275 0.038590606 0.00019684508 -0.02960623 0.02784438
0.059914287 -0.05038687 0.012640404 -0.008348263 0.04050381 0.0048311288 0.05673993 0.002804273
0.052900434 -0.030349748 -0.02905541 -0.019155005 0.0028927221 0.003063447 0.008579757 0.061262388
0.053578537 -0.036508337 0.017973818 -0.019458504 0.023866303 0.029610949 -0.028623523 -0.04345412
-0.02945534 -0.034430206 -0.03549361 -0.05085611 0.046715725 0.018980253 0.006588978 -0.0440679
-0.014872325 -0.022411086 0.051689085 0.06280938 -0.028126068 0.05002269 0.047220215 0.030754978
-0.052460432 -0.04945955 0.016952284 0.030245397 -0.031269375 0.030811166 0.043398745 0.029479887
-0.0071105184 -0.06299627 0.0026546265 0.05889394 -0.0097649135 0.03317378 -0.047530875 -0.023811562
0.0457422 -0.031807132 0.020192623 0.04867565 0.0022413149 0.0076158457 -0.049939815 0.020215867
0.05029533 0.06249242 -0.028615387 -0.008355364 0.05038062 -0.007271627 -0.03595755 0.049678516
-0.053975355 0.022853427 -0.042681906 -0.037123084 0.05409916 0.020315863 -0.03865303 0.009621729
-0.039372165 -0.031936873 -0.035191804 -0.051301945 0.0020180086 0.05209291 -0.0026029418 -0.0060923914
0.04387797 0.01475501 0.040014096 -0.032573506 -0.037100025 0.008256314 -0.050339665 0.016892076
-0.0110204 0.040995654 -0.012849409 0.05289801 -0.016207026 0.0145060355 -0.009660179 -0.027838597
0.002924849 0.05783245 -0.030473987 0.03719695 0.020785581 -0.04594194 0.02105056 0.003128697
-0.03749383 0.010259035 0.053178754 0.020437567 0.004162108 -0.04838026 -0.04037023 0.010437665
0.037947055 -0.050443873 0.057931405 0.0476868 -0.051614515 -0.03555097 0.0003685868 -0.006994116
-0.05083038 0.027832126 -0.04168934 -0.0018787484 -0.03569456 0.0035163006 0.024871588 -0.0505295
-0.014223963 -0.039219003 -0.032255024 -0.02366583 -0.041998465 0.051477287 -0.033463776 -0.015517185
-0.034793016 0.030107995 -0.004480481 0.00939905 0.05428311 -0.010044978 0.028336084 -0.048325244
-0.015674716 0.042833343 0.0043679364 0.04785601 -0.02857708 -0.043868817 0.031101981 -0.017675128
-0.047783766 0.062036525 0.056672424 -0.0036654463 -0.0166785 0.040010437 -0.011205111 0.055681136
-0.018653003 -0.010413144 0.027010655 0.0069225007 0.033995163 0.010669425 0.05023628 0.04473315
0.035882153 -0.040504124 0.060223494 -0.041085735 -0.042175762 0.00864725 0.030971535 0.024116525
-0.054226715 -0.0054654665 -0.042960156 0.05997575 -0.0440038 0.0010529025 0.02127485 -0.05410165
-0.030970953 -0.045105968 -0.01704854 -0.012282368 -0.034334462 0.0062888525 0.040541828 0.016191639
-0.056046337 -0.058555935 -0.05479494 0.032426693 0.027807306 0.0046194852 0.010129366 -0.03509255
-0.0566473 0.01955949 0.03514221 0.0342141 0.05301631 0.050644245 -0.0141235925 -0.012558214

encoder.2.bias f4 [64]
00000000: 3d43 83bb 5eeb abbc a600 ef3c 962a 8c3c
00000010: a300 163c 1a51 e73c 3431 833c ab23 12bd
00000020: 92fc e4bc 7b0a 85bc a678 d33b 8706 153b
00000030: 8748 e33b 7604 233d 97c1 8dbc bf36 aabb
00000040: a498 26bd 51ca 32bd 0d04 54bd c0de 9cbc
00000050: 9f53 993b 4d82 663d 3067 edb9 3560 6fbd
00000060: 4463 54bd 1591 5d3d 5e89 b2bc bd9a 2e3d
00000070: b17b 46bc b01f d33c 411e 663d 6d96 5d3c
00000080: b1a9 463d ec20 f6bc dd15 913a a9e0 723d
00000090: 9e8c 0dbd 5ea7 ef3b 61e9 203d 1578 553d
000000a0: 2f59 ad3c dff3 d2bc 28fd 31bd 94f4 87bb
000000b0: 9af8 fcbc a8dc b13c d70b 263b 565b 96bc
000000c0: be96 8c3c 9714 f33c 0ce4 803d 46fa 123d
000000d0: cb41 31bd d8e0 883b aab3 e83c 2eab 2ebb
000000e0: 03f1 8cbc 58d2 1cbb 4484 82bc 5078 bcbc
000000f0: 54a4 67bc 295f b33b d82e 1b3a 91ee 3b3d
-0.004005818 -0.020986255 0.029175114 0.01711015 0.009155425 0.028236914 0.016014673 -0.035678547
-0.027952466 -0.016240349 0.0064535914 0.0022739486 0.006936136 0.039799176 -0.017304225 -0.0051945145
-0.040672913 -0.043649975 -0.051761676 -0.019149184 0.004679158 0.05627661 -0.00045281043 -0.05844136
-0.05185248 0.05409344 -0.021794017 0.04262804 -0.012114451 0.025771946 0.056181196 0.013524634
0.048501674 -0.030044995 0.0011069138 0.059296284 -0.03455793 0.007313653 0.039285067 0.052116472
0.02116069 -0.025751052 -0.04345432 -0.004149029 -0.030880261 0.021711662 0.0025336647 -0.0183541
0.017161723 0.029672904 0.062934965 0.03588321 -0.043275636 0.004177194 0.028405983 -0.0026652324
-0.017204767 -0.0023929086 -0.01593221 -0.023006588 -0.0141383 0.0054739905 0.0005919761 0.04588181

encoder.4.weight f4 [64, 64, 3, 3]
00000000: 3dba ba3c 8657 e9bc 4b67 bb3c deba 193c
00000010: 3025 433c 1311 4a3c aeac 4c3c 61d2 1bbd
00000020: c9bd 1b3c e70b d33b 2c27 07bb 9152 0cbd
00000030: 3df6 c03c 3c0a 93bb af7d a6bb d5ba 583b
00000040: 2781 e43c 7d31 28bc 306d cc3c 8587 a83c
00000050: fae6 e83c 9d86 a33c 867f f53c 4783 cbbc
00000060: 6c0c ddbc 2066 b23c acd1 33bd ac41 263d
00000070: 9438 033c b3c3 5dbc c866 d5bc 06f2 58bc
00000080: a031 173d e691 c93b 8a6b 08bd 2f0b b73c
00000090: 825b 133c bde0 073c 8b9e 2e3d caaa c0bb
000000a0: a16c 1cbd ac49 5ebb e2ff 2e3d e0af 98bc
000000b0: d625 b23c 83cb ef3c 93db ac3c 641d bbbc
000000c0: 8ed2 26bd b644 81bc 87d5 0c3d 083e 253d
000000d0: 53d9 1e3d 43f2 c9bc c5e8 0bbd 8c23 363d
000000e0: d6e7 3abc 14a8 263d 6912 053d c689 9fbc
000000f0: 6bf6 8ebc 9fd0 183c 6df4 35bc d415 8ebc
00000100: 3f68 973c fe81 8bbc 3f40 11bc 6119 f23c
00000110: 70de c23b a0fe f43b b4db 20bd dde7 243d
00000120: 2312 ecbc 76d7 1c3d f909 c2bb c8d6 1bbd
00000130: db7d dbbc ade9 193b 16bc 96bc 1ded c4bc
00000140: 660b 173c 5635 273d b6ba 313d fa8c edbb
00000150: f0d3 023c 6cc8 153d 32f8 d7bc 85b9 f2b9
00000160: f4da d33c 8441 073b a397 883b 0707 dbbc
00000170: 2d7b bdbb 4604 c3bc 336b 0c3d ccec 27bd
00000180: c4be 25bd dc0c 01bd 7e31 0b3d accb 173d
00000190: 54d5 d63b 2b29 9a3c 7943 033d bc35 ac39
000001a0: b4e1 babc ce3a 103d c71b ec3c ab92 a93c
000001b0: 3c1c 52bc 0e13 c93c 5649 cf3c ad03 993c
000001c0: 8103 e5bc 5615 07bd 4e24 203c 22be 9fbc
000001d0: 2a40 00b9 9ece 8e3c 7259 82bc 0d28 65bc
000001e0: 804e afbc 3c8d d7bc eef4 103d 8ddd 0bbd
000001f0: 1218 f83c 890b 243d 840c a33b 6f3e 3c3d
00000200: 8a36 a83c 76f3 13bd 3dfa a4bc 6bb8 943c
00000210: 3af1 f8bc 1e98 bb3c f0d9 3ebb ed0e 8abc
00000220: f2a9 2cbd 0ca4 693c 0c58 be3c de14 85bc
00000230: 58fe c4bc 994a 303b c7fd 143d 76ab dcbb
00000240: 5025 893c cc8f 1a3d 70a5 a2bc 36f7 b2bc
00000250: 5417 33bc 9a99 0e3d 5451 66bc 0f37 91bb
00000260: f126 99bc 9674 68bc 6006 a53b 0068 a7ba
00000270: 1343 133d 461b 5fbc b88e 93bc 905d 4ebb
00000280: cc20 07bc 6af2 1ebd e973 af3a 3ad4 1e3d
00000290: 7315 edbc 57fe ffbc b372 9b3c e893 c939
000002a0: 379b 80bc 0361 073d 7a7d 55bc da0b f33c
000002b0: 50d6 11ba 8a37 263d f06d 3c3d 309b 0cbd
000002c0: c150 cbbc 0aa9 2e3d 1333 91bb 519d 00bc
000002d0: 7a18 533c 5056 e03c 1353 8b3c b579 7aba
000002e0: 4e41 a53c 4132 d4ba 1d99 14bd e743 da3c
000002f0: 3fc3 27bb 3beb c53c 7732 03bd 6e3e 473c
00000300: 1928 ce3b 5c00 9ebc ad81 823b 0db5 ab3c
00000310: 1e54 bf3c 30e7 e3bc 6ea2 3e3d 2c31 86bc
00000320: 6134 bcbc 9ab4 143c 7b14 22bc 8516 ea3c
00000330: d45a 0dbc 7bf3 923c 9aef da3a b35f 113d
00000340: 2b4b d5bc 0a3b 29bd b03b 06bb b7e2 04bd
00000350: 807a e6b9 dc55 4cbc a079 fd3b 4aaf d53c
00000360: 67e8 1c3d d853 f6bc 34f2 a5bc 42e3 27bb
00000370: 140a c0bc 5884 8bbc bded 05bd e8ff f43c
00000380: 0e41 e93c 4f3b 903c 5adb e6bc 8e33 1ebb
00000390: 56e5 8ebc 6901 a83b 4cd9 93bc 4453 32bd
000003a0: 32be 943c 7c4e 17bc 132a 2d3b 5352 15bc
000003b0: fceb 80bc 884d d6bc b543 263d b196 f8bb
000003c0: 28f5 99bc c520 69bc 8603 c83c d18f 2cbd
000003d0: 8800 31bd 9d72 f0bc 9aa8 0b3d ec42 10bd
000003e0: df82 a33c 5e8a e73c 6b78 fa3c 0f2b 103d
000003f0: c932 133c ae4d 083c 7c21 82bb 8b27 f3bb
0.022793883 -0.028484117 0.022876402 0.0093829315 0.011910722 0.012333172 0.012492342 -0.03804243
0.0095056975 0.006440628 -0.0020622713 -0.03425843 0.023554916 -0.004487304 -0.0050809006 0.0033070345
0.027893616 -0.010265705 0.024954408 0.020572433 0.02843045 0.01996165 0.029968034 -0.024842871
-0.026983462 0.021777213 -0.04390113 0.040589973 0.008009095 -0.013535428 -0.026049986 -0.013241297
0.03691256 0.0061514257 -0.033305682 0.0223442 0.008993985 0.008293328 0.042631667 -0.0058797346
-0.038189534 -0.0033918424 0.042724498 -0.018638551 0.021746557 0.029271847 0.021100795 -0.022841163
-0.040728144 -0.015779834 0.034383323 0.04034236 0.038781475 -0.024651652 -0.034157533 0.044467494
-0.011407813 0.040687636 0.03248826 -0.019474875 -0.017451486 0.009327083 -0.011105639 -0.017344393
0.018482326 -0.017029759 -0.008865415 0.029553117 0.005946927 0.0074766427 -0.039272025 0.040260185
-0.028817242 0.038291417 -0.005921599 -0.03804663 -0.026793411 0.002348523 -0.018400233 -0.024038846
0.009219026 0.04082235 0.043390952 -0.0072494717 0.0079851 0.03656809 -0.026363466 -0.0004629606
0.02586124 0.0020638416 0.004168467 -0.02673675 -0.005782506 -0.023805749 0.03428192 -0.04099731
-0.04046513 -0.031506404 0.033982746 0.03705947 0.0065561924 0.018818459 0.03204677 0.00032846432
-0.022812702 0.03521233 0.028821839 0.02069982 -0.012824114 0.024545219 0.025303524 0.01867851
-0.027955772 -0.032979332 0.009774281 -0.019499842 -0.00012230934 0.017432507 -0.015911791 -0.0139866
-0.021399736 -0.026312463 0.035389833 -0.034146834 0.030284915 0.040050063 0.004975857 0.04595798
0.020533819 -0.036120854 -0.020138854 0.018154344 -0.030388463 0.022899684 -0.00291216 -0.01685282
-0.04215426 0.014260303 0.023235343 -0.016245302 -0.024047062 0.0026899932 0.036374833 -0.006734307
0.016741425 0.03773479 -0.019854277 -0.021846395 -0.010930855 0.034814455 -0.014057476 -0.0044316123
-0.018695327 -0.0141879525 0.0050361603 -0.0012772083 0.03595264 -0.013617342 -0.01801239 -0.0031488873
-0.0082475655 -0.038805403 0.0013385984 0.038776614 -0.028940892 -0.031249208 0.018975591 0.00038447906
-0.015699012 0.033051502 -0.013030404 0.029668737 -0.0005563246 0.04058031 0.046003282 -0.034327686
-0.02481878 0.042641677 -0.0044311373 -0.007850007 0.012884254 0.027384907 0.017007386 -0.0009554879
0.020172741 -0.0016189293 -0.036278833 0.026643706 -0.0025598553 0.024160018 -0.03203055 0.0121608805
0.006291401 -0.01928728 0.0039827437 0.020960355 0.02335554 -0.0278202 0.046541624 -0.016380869
-0.022974195 0.009076262 -0.009892578 0.028575191 -0.008627612 0.017938366 0.0016703487 0.035491657
-0.02603682 -0.04131607 -0.0020482354 -0.032442775 -0.00043960288 -0.012471642 0.007735446 0.02608456
0.038307574 -0.030069277 -0.020257093 -0.0025617634 -0.023442306 -0.01703088 -0.032697428 0.029907182
0.028473403 0.017606406 -0.028180767 -0.0024139616 -0.01744334 0.005127121 -0.018047951 -0.04353644
0.018157098 -0.009235021 0.0026422783 -0.009113866 -0.015737526 -0.026160017 0.040591914 -0.007586323
-0.018793657 -0.014229004 0.024415743 -0.04212934 -0.043213397 -0.029351527 0.034096338 -0.03522007
0.019959865 0.02826422 0.030574998 0.035197314 0.008984276 0.0083193015 -0.003971277 -0.0074204854

encoder.4.bias f4 [64]
00000000: ee9b c4bb c253 d33c 35ee e7bc c548 31bc
00000010: 044b d13c 9343 123d 566c ca3c 07f8 2fbc
00000020: 9ca2 383c c394 ea3c e7f1 313d 55ef da3b
00000030: 9813 373c ad69 93bc 4a4c e53c 2a34 97bb
00000040: 94bf 363b 6a4e c23b 4698 2c3d 7b87 3f3c
00000050: 2538 8dbc 4598 92bc d3d7 133c c915 a4bc
00000060: 5a65 7c3c e8ea 2d3d daa6 09bd 28d0 c7bb
00000070: 93e5 d9bc 8cf4 833c 7aac 393d 6c01 d03b
00000080: bde8 1cbd f4d6 b23c c0cc 263d b90d c6bc
00000090: 1853 123d 7ab5 3d3b b940 b73c 2f74 f8bc
000000a0: aa7b 013d 8b12 c33c 31d2 1f3c a886 27bd
000000b0: 5de0 d4bc 7206 cfbc 8861 f83b a64c 783a
000000c0: 410f 033b 6fc1 8dbc 351b dd3c b729 a6bc
000000d0: 7c06 26bc 40cc f4bc 7983 e53c e7da c73c
000000e0: cf72 0c3d 179e 2d3d bf1a 5ebc 3280 d3bc
000000f0: dbbf 723c 043f 343c 584b 1abc 0e0e 16bc
-0.0060000336 0.025796775 -0.028311828 -0.010820572 0.025548466 0.035708975 0.024709862 -0.010740287
0.011269238 0.028635388 0.043443587 0.0066813626 0.011174105 -0.017994726 0.027990479 -0.0046143727
0.0027885186 0.005929758 0.042137407 0.011690016 -0.017238686 -0.017894873 0.0090236245 -0.02002992
0.0154050235 0.042460352 -0.033606388 -0.006097812 -0.026598727 0.01610782 0.045330502 0.0063478258
-0.038307894 0.021831013 0.04072261 -0.024176465 0.035723776 0.002894728 0.02236973 -0.030328838
0.031612076 0.023812553 0.009754703 -0.040899903 -0.025985891 -0.025271628 0.007579986 0.0009471871
0.0019998106 -0.01730415 0.026990512 -0.020283563 -0.010133382 -0.02988255 0.028016793 0.024396373
0.034289178 0.042387094 -0.013556181 -0.025817964 0.01481625 0.011001352 -0.009417377 -0.009158624

decoder.0.weight f4 [32, 64, 3, 3]
00000000: 8dea 223d 9c4a ec3c 3aa0 74bc 6ad0 edbc
00000010: ef83 33bc 443f 503c 8b85 ce3c 575c a0bc
00000020: c81c a03c 9810 24bd 2865 913b cb28 c13b
00000030: 9dc4 f33c 8c04 2b3b 3d78 c43c 701b 7ebc
00000040: ece2 11bd bfc2 f13c 8845 f4bb 1dbf 0f3d
00000050: a35f 003c a4e3 12bc 7882 eb3b 305c 1fbc
00000060: 74f6 733c 59f1 143d 6076 ffbc 649f 16bd
00000070: f69f b2bc 00af 5b3c b301 80bb 27c6 1dbd
00000080: de55 25bc f740 e13c e574 d2bb a3a7 ec3a
00000090: 1dd9 39bb f540 08bc da7d 943c 6e7c 113d
000000a0: bc62 b03c 5752 a6bc eaff 233d aaee be3c
000000b0: 1c6d bcbc c981 cf3c bd83 ee3b 1911 43bc
000000c0: 7cd7 0abd 7658 c8bc 9176 633c 0b99 27bd
000000d0: 6dd7 ee3c 950c d2bc 9faa 21bb 1645 e2bb
000000e0: 326a 83bc af48 1cbd f689 89bb b61b 173d
000000f0: 2910 303c 5234 f9b8 c3e3 f0bc 70bc 42bb
00000100: 4c58 853c 0b15 8b3c bfea 12bd f94c bfbc
00000110: 362e d6bb 16a8 e43c 547e 963c 4873 1b3d
00000120: bb04 643c 9f17 c1bb 3a2c e53c 6824 233b
00000130: 1a04 493c c5d3 b8bc 34e6 00bd 2bfa 1bbd
00000140: 7b46 e33c 8da8 793c dd89 cbbb 0f09 7e3c
00000150: c036 0c3c 32a6 173d d618 a7ba 619d be3b
00000160: dee5 b33c 3baa 61bc e4a1 013d ae35 1c3c
00000170: da9e 2b3d d0e0 1abc 539c 2b3c aecd dc3b
00000180: 6b81 fdbc b47b 26bb a9e6 203d b149 ddbc
00000190: a14a 53bc aae3 363c 060a 9fbc 6cb5 24bc
000001a0: 410d 123d 5669 713c 5417 23bd 379a d5bc
000001b0: 5b0c 30bc 58da ac3c c857 f73c 8f11 883c
000001c0: bec8 d8bc c869 a1bb 6dd7 cf3c ece3 ca3b
000001d0: 5206 093d ad0f 173c ab9b d53c 0584 a83c
000001e0: cdee 813b eeae c23c 5432 f23c 5700 253d
000001f0: a94a 2d3d 7f98 9bbc 0a0c debb ab09 f23c
00000200: b63f c03c 7579 00bd ec83 0dbc 0703 22bd
00000210: 5607 03bb 90d4 b9bc 3c59 6d3c ae69 8d3c
00000220: 87b7 033c 541e 363d 96ae 0f3d 21f7 373c
00000230: 7a91 083d 1c8e 19bc 01ae 423d 7d4f 943c
00000240: f8b7 29bd 59f0 1c3d d04b 0a3d 4c32 9dbb
00000250: da46 79bb bb9c ca3c 9cb2 14bc 5d0a a5bc
00000260: 9caa c5bc a04a debb 0333 2a3d 417a 4a3c
00000270: 2a58 5b3c 2221 88bb 104e 293d bb4c f93b
00000280: 7f64 053d 0080 8b38 befd 60bc b654 cfba
00000290: 1af2 723b bb49 e43c b144 143d cf85 14bd
000002a0: 5d17 e23c f834 0fbd a948 25bc 4d4e 2c3d
000002b0: 0770 ffbc 9df3 04bd 6ef7 6abb 842a 84bc
000002c0: 5221 203d 190c cf3b e0fb 0c3d 3812 a73c
000002d0: 6605 29bc d372 0d3d 7f3b e2bb cd99 d3bb
000002e0: b1d0 923c 73d1 65bc 1748 66bc c967 12bd
000002f0: 422a fe3a bc2c 103d 2972 b23c e515 b03c
00000300: bd87 af3c c4ea 69bc 4ada 583c a158 bebc
00000310: 0b17 a2bc c1cf 623c 8ba5 393b 436e 59bc
00000320: 3a6a bdbc 0b30 7abc 4e81 55bc 3301 60bc
00000330: d118 afbb 11c8 843c 0dd8 05bd be8e febc
00000340: b267 753c 5087 48bb 5a97 323d ecc0 acbc
00000350: f3e6 743c 8edc 843b d84d 123d f368 1b3d
00000360: 788c 0f3d 2485 2abb 7b67 0bbd a24d 733c
00000370: b393 783b 0e70 08bc 4f18 92bc d397 8bbc
00000380: a432 e3bc 7d4b 1abc b11e 6a3c ceb1 a339
00000390: 5ff7 d2bc 0186 323c 1846 b4bc ad9f 093d
000003a0: 1408 28bd 8416 09bd 96e4 b23c a9ff 44bb
000003b0: 1a19 29bc 2c67 b43c dc84 603c 0359 963b
000003c0: 7927 c5bc e838 053d 0d51 ef3c 4d16 193d
000003d0: 14e1 1cbc e259 ab3b 3aa1 0c3d 0eb5 12bd
000003e0: 8f47 f73c f317 973a a237 cf3b 1dcc 02bd
000003f0: 0040 73ba c144 0c3d 586a 20bd 4647 fd3c
0.039774466 0.02884417 -0.014930779 -0.029030044 -0.010956748 0.012710396 0.025210163 -0.019575281
0.019544974 -0.040054888 0.0044371076 0.0058947555 0.029756838 0.002609524 0.023983115 -0.015509471
-0.0356168 0.029511807 -0.007454578 0.03509437 0.007835302 -0.008965407 0.007187184 -0.009726569
0.014890302 0.03636298 -0.031184375 -0.0367731 -0.021804791 0.0134084225 -0.0039064526 -0.03851905
-0.010091273 0.027496798 -0.0064226263 0.0018055331 -0.002835817 -0.008316268 0.018126417 0.035519056
0.021531455 -0.020302935 0.04003898 0.023307163 -0.023001246 0.025330441 0.007278888 -0.011905932
-0.03389691 -0.024456244 0.013883249 -0.040917438 0.029155457 -0.025640765 -0.0024668348 -0.0069052083
-0.016041849 -0.038155254 -0.0041973544 0.03689166 0.01074604 -0.00011882991 -0.02940548 -0.0029714368
0.016277455 0.016977808 -0.035868403 -0.023352133 -0.0065362705 0.02791218 0.018370785 0.037951738
0.013917143 -0.0058927084 0.02797519 0.0024893526 0.012269044 -0.022561917 -0.03146954 -0.038080376
0.027743569 0.01523794 -0.006211503 0.015505089 0.008557975 0.03702373 -0.001274849 0.005817101
0.021960195 -0.013773496 0.03164853 0.009534283 0.04189954 -0.009453014 0.010474282 0.006738386
-0.0309455 -0.0025403323 0.039282475 -0.027012678 -0.012896211 0.011162678 -0.01941396 -0.01005302
0.03565717 0.014734587 -0.03981717 -0.026074512 -0.010745133 0.021100208 0.030193225 0.016609935
-0.026462909 -0.00492594 0.025371278 0.006191721 0.033453293 0.009220046 0.026075205 0.020570764
0.003965235 0.023765054 0.029565014 0.040283527 0.04230753 -0.018993614 -0.0067763375 0.029545626
0.02346788 -0.03136583 -0.00863741 -0.03955367 -0.0019993386 -0.022684366 0.014486607 0.017262306
0.008039362 0.044462517 0.035078607 0.011228354 0.033341862 -0.00937226 0.047529224 0.01810431
-0.041435212 0.03831515 0.033763707 -0.0047972556 -0.0038036616 0.024732938 -0.009075787 -0.020146543
-0.024129204 -0.0067837983 0.041552555 0.012358249 0.013387719 -0.0041543404 0.04133421 0.007608024
0.032566544 6.651878e-05 -0.013732372 -0.0015818093 0.0037070573 0.027867189 0.03619832 -0.036260422
0.027599031 -0.034962624 -0.010088124 0.04206686 -0.031181348 -0.03245889 -0.0035853046 -0.016133554
0.039094277 0.006318581 0.034419894 0.02039443 -0.0103162285 0.034533333 -0.006904065 -0.0064575435
0.017921777 -0.014026987 -0.0140552735 -0.03574351 0.0019391256 0.035198912 0.021782951 0.021494815
0.02142703 -0.014277164 0.013235638 -0.02323562 -0.019786378 0.013843478 0.002832743 -0.013270917
-0.023121942 -0.015270243 -0.013031317 -0.013672161 -0.0053435345 0.01620868 -0.032676745 -0.031073924
0.014978336 -0.003059823 0.04360137 -0.021088086 0.014947641 0.0040546125 0.03571877 0.037941884
0.03504607 -0.00260193 -0.034034234 0.014850052 0.0037929832 -0.008327497 -0.017833857 -0.017040169
-0.027734108 -0.009417412 0.014289544 0.00031222258 -0.025752721 0.010896207 -0.02200608 0.033599544
-0.04102333 -0.03346874 0.021837514 -0.0030059612 -0.010320926 0.022021852 0.013703551 0.0045882477
-0.024066674 0.032524973 0.029213453 0.037374783 -0.009575147 0.0052292207 0.034333445 -0.0358172
0.030185489 0.0011527523 0.0063237706 -0.03193294 -0.0009279251 0.034245256 -0.039163917 0.030917775

decoder.0.bias f4 [32]
00000000: 9972 abbc 9146 013d 78bd e33c 955e 073d
00000010: 7421 ab3c 3c65 03bc 60f7 2cbd 94d0 223d
00000020: 80fa ae3c 422e a1bc defa bcbb 803c 9f3c
00000030: 2312 163d f12a b1bc 20b1 f2bc 1f93 7b3c
00000040: 38b8 01bc 9663 1ebd 202b 873c 7198 a63c
00000050: 74b6 103d ec09 10bd 96bd 103d 391d e7bb
00000060: 8dc1 2a3d aee2 993c d112 bbbc c28d 06bd
00000070: 29e6 1c3d 2144 283d f921 0ebc 5c1c 0fbd
-0.020928668 0.031561438 0.027800307 0.033049185 0.020889975 -0.008019742 -0.042228103 0.039749697
0.021359682 -0.019675378 -0.0057672104 0.019438028 0.03663839 -0.021626921 -0.029625475 0.015354901
-0.007917456 -0.03866919 0.016500056 0.020336362 0.03533025 -0.035165712 0.035337053 -0.007053044
0.04168849 0.018784847 -0.02283612 -0.032850035 0.038305435 0.041080598 -0.008675092 -0.034939155

decoder.2.weight f4 [3, 32, 3, 3]
00000000: 6ed6 98bc 9eec 21bd 374b c53c d8a0 4d3c
00000010: c6dc 7e3d 90cb 1d3d b656 09bd 08fc b23c
00000020: 1fb2 2dbd 2969 153d b6a4 bdbb 2157 37bd
00000030: be6c 6ebd 6928 e73c adb2 2c3c 99cd 17bd
00000040: 923b 84bd 2cfe 70bc 97fe a0bc 748a 49bd
00000050: a728 08bc 98a3 12bd e7ff 803c ea4e ee3c
00000060: 8c24 b33c 42b1 dfbc 91bb 523d 6961 323c
00000070: 1019 2f3d 15e0 28bc ff4a 82bc 908c 113b
00000080: c746 a6bc 1d75 0cbd 63b6 5fbd ed3f f6bc
00000090: 465d 693d aa91 bcbb ace0 f0bb c706 bd3c
000000a0: beea 223b 56db 09bd 02bc 593d 4d69 be3c
000000b0: 9dcd 023c cc7e cf3c 7803 5ebd cfe5 73bb
000000c0: 42e7 23bd 5ac3 fb3b 5727 7dbd e54a 1fbd
000000d0: 1a62 48bd e3c2 e93c 52a8 1c3a 7d2d 523d
000000e0: d05f 56bd 5470 e1bc 39bb 42bd 037c 5ebd
000000f0: 26cb 0dbd d873 673d e7a0 de3a a82b 58bd
00000100: 44a1 ef3a 082b d3bb 8214 3b3b 213c 2d3d
00000110: b305 77bd 4ffa 83bd f4a2 3b3d 6a87 353c
00000120: 9471 123c 4568 62bd 6960 aebc 1365 433c
00000130: f27d 94bc 0dd4 e2bc 331f 9ebc 0c2b de3b
00000140: bfd7 11bd ef02 c0bc 505d 33bc 393f 7cbc
00000150: a1ea 533c eb9a ab3c 17db 95bc fea0 34bd
00000160: 8ba5 3cbc 71cc 393d c118 8f3c d8f1 2cbb
00000170: 827d 3abd 8d0a 3fbd dacb 11bd fb3a 1e3d
00000180: b489 d73c 8cf3 b2bc a5b1 723c fbec 0e3d
00000190: 9319 46bb 6567 463d cc55 14bd b330 2d3d
000001a0: 21ef ed3c f617 a43a bdef 55bd 99be 1abd
000001b0: f3dd 45bd 1096 26bb 7267 a03b c6a8 bdbc
000001c0: 2968 49bc d4e2 afbc a390 373b 780d edbc
000001d0: 261c 23bd 53e6 5a3d dfd3 3ebc d0fc 7cbc
000001e0: 8165 61bd 575d 14bd b416 5bbc 98c1 333d
000001f0: 4677 18bd a91a 59bd 9c33 36bd ff54 2a3d
00000200: f28e 39bc bf5d 95bc 47f1 1dbd bc79 4c3d
00000210: b795 073d 51fe 0abd 4da5 1d3d 6742 ff3c
00000220: e3e4 693d 3511 543d 426b 4e3d 50de 1abd
00000230: 0e7e 293d 7460 5cbd 0e4d cb3b bdeb 093b
00000240: 3ab5 7a39 3187 fc3b 80d5 683d b2eb b7bc
00000250: 6136 58bc 8e55 103d 077c 0ebc b7e5 353d
00000260: 49b2 18bc c427 a43c d67d 45bc 57e6 183d
00000270: 6d98 56bd 6f22 b03c dc87 45bd 8cd7 51bd
00000280: 722b 2fbd adf0 503d c6b6 313c 6b27 32bd
00000290: 303f 933c 1280 aabc 6ce9 db3c 44c0 2abd
000002a0: f08d 903c 5eb4 79bd 2d65 553c 8acd 023d
000002b0: 9164 aa3b 5cda 0cbd 8076 0c3d 4265 71bd
000002c0: 6374 cdbb 693f c93b c17f 82bd 3d86 033d
000002d0: 0138 3dbd 700d 643d 272c 1bbd 3f36 6b3d
000002e0: e8ca 4a3c 5202 523d 7b8d 47bd 7d84 56bd
000002f0: b1c9 6d3d 5a4a 173b d704 d63c f232 253c
00000300: e6dc 223c b723 673c 79cd 06bd 5f73 2dbc
00000310: 53c9 123d aaed 5fbd b3a7 623d 4cb5 e2bc
00000320: 64e4 d8bc 4feb 22bd 56fb 15bd 0742 083d
00000330: ef96 0dbc 3af1 ff3c c1ff c73c 9dd3 e1bc
00000340: dd45 e43c 9d84 3bbd 7b8c 57bd 9386 34bd
00000350: 81eb 12bc 70e2 493d 215d 30bd fc50 bf3c
00000360: 7814 b6bc bcd4 2fbd 01d5 193d 74d4 7abd
00000370: afb1 313d c217 2bbc 222c 51bd 31db febc
00000380: ee3e 30bc 7f16 42bc c22c 59bd 7523 94b9
00000390: dacd 24bc 72be c03c 23c1 81bd 749c 0a3c
000003a0: 3e51 b3bb 6029 5abd 1c17 ff3c 0df1 cfbc
000003b0: cee6 e7bc 2fb7 e83c ceb5 05bc 971a 1ebd
000003c0: 17d6 a43c 2099 0ebc 87f5 75bd d3ca 11bc
000003d0: d892 633d 1a7d 31bd aeeb 3f3d 3400 fcbc
000003e0: 7ac1 b93c 79d0 c13c 6202 10bd 7632 7b3d
000003f0: 121c 4c3d b7a3 60bc 3f8d 923c 950a 373d
-0.018656936 -0.039532296 0.024083717 0.012550555 0.062222265 0.03852421 -0.03352996 0.021848693
-0.042406198 0.03647724 -0.0057874573 -0.044760827 -0.058209173 0.028217511 0.0105406465 -0.037061308
-0.06456675 -0.014709037 -0.019652648 -0.049204305 -0.0083104735 -0.035800546 0.015747024 0.029090364
0.021868013 -0.027306203 0.05144841 0.010887482 0.04274851 -0.010307332 -0.015904902 0.0022209026
-0.020297421 -0.034291375 -0.054617297 -0.030059779 0.056973718 -0.005754669 -0.0073510017 0.02307452
0.0024859156 -0.03365644 0.053157814 0.02324357 0.007983592 0.025329016 -0.054202527 -0.0037215834
-0.040015467 0.0076832 -0.061805096 -0.038889784 -0.048921682 0.028535312 0.00059760094 0.051312912
-0.052337468 -0.027519383 -0.04754183 -0.054317486 -0.034617566 0.05650696 0.0016985208 -0.05277601
0.0018282314 -0.0064443387 0.002854616 0.04229367 -0.06030817 -0.06444227 0.0458097 0.0110796485
0.008938212 -0.05527522 -0.021286206 0.011925953 -0.018126462 -0.027689004 -0.019301986 0.006780034
-0.035606142 -0.023438899 -0.01094754 -0.015395933 0.012934358 0.020947894 -0.018292947 -0.044098847
-0.011514078 0.045360986 0.017467858 -0.0026389267 -0.04552985 -0.04664092 -0.0355948 0.038630467
0.02631078 -0.021844648 0.014812862 0.03489397 -0.0030227646 0.04843845 -0.036214635 0.04228277
0.02904469 0.0012519348 -0.052230585 -0.037779424 -0.04830737 -0.0025419034 0.004895144 -0.023151767
-0.0122929 -0.021470465 0.0028009794 -0.028937086 -0.039821766 0.05344231 -0.011647194 -0.015441135
-0.055028442 -0.03622183 -0.013372112 0.043885797 -0.037223123 -0.05300394 -0.044482812 0.041584965
-0.011325585 -0.018233178 -0.038560178 0.049920782 0.033101764 -0.03393394 0.03848772 0.031159593
0.05710305 0.051774222 0.050395258 -0.03780967 0.04137998 -0.053802922 0.006204254 0.0021045052
0.0002390937 0.0077065458 0.056844234 -0.022451255 -0.013196559 0.03523784 -0.008696563 0.044408526
-0.00931985 0.020038493 -0.012053927 0.037329044 -0.05239146 0.021500794 -0.04822527 -0.051230952
-0.042766042 0.051010776 0.010846799 -0.043494623 0.017974466 -0.020813022 0.026844703 -0.041687265
0.017645806 -0.060963027 0.0130246105 0.0319343 0.0051999767 -0.03438793 0.034292698 -0.058934458
-0.006269978 0.0061415923 -0.063720234 0.03211044 -0.046195988 0.055676877 -0.037883904 0.05742478
0.012377478 0.051271744 -0.04871891 -0.052372444 0.058053676 0.0023085088 0.026125355 0.010082947
0.009940362 0.014107636 -0.032910798 -0.010586589 0.03583653 -0.054670013 0.05533571 -0.02767434
-0.026476093 -0.03977519 -0.036616646 0.033266094 -0.008641942 0.031242955 0.024413945 -0.027566725
0.027865345 -0.045780767 -0.052624207 -0.044073652 -0.008967281 0.049288213 -0.043057565 0.023354046
-0.022226557 -0.04292749 0.037556652 -0.061237767 0.043382343 -0.010442676 -0.05106748 -0.031110378
-0.010757191 -0.011846184 -0.0530212 -0.00028255177 -0.010058844 0.023528311 -0.06335666 0.008460153
-0.0054723313 -0.053262115 0.03113895 -0.025383497 -0.028308298 0.028407661 -0.008161021 -0.038599577
0.020121617 -0.0087035 -0.060048606 -0.008898455 0.055559963 -0.043332197 0.04685562 -0.030761816
0.022675265 0.023658978 -0.035158522 0.06132742 0.049831457 -0.013710908 0.017889617 0.044687826

decoder.2.bias f4 [3]
00000000: 342e 38bd c5a0 113d 14c4 f6bc
-0.044965938 0.035553712 -0.030122794
